models/ccg.pth (torch, 27676 bytes, 8 tensors)

network.0.weight f4 [50, 16]
000000 25 ca 01 c0 c7 79 10 3f 10 66 f2 bd a0 4f 00 3e
       -2.027963 0.5643582 -0.11835873 0.12530375
000010 2c a4 49 be bf 5f 3d bd 31 8e 65 be 39 1c aa 3d
       -0.19691533 -0.04623389 -0.22417523 0.08306164
000020 e9 f5 dd bf d7 4f 66 3e a8 45 ed 3d 44 cf c7 3d
       -1.7340671 0.22491394 0.115855515 0.0975633
000030 d7 c9 a0 3e 6b fa cc bd d6 75 05 3f 8b 09 4d be
       0.31403992 -0.10008701 0.5213293 -0.20023172
000040 c6 58 45 3e 38 5b 17 3d a4 05 ef bd 08 82 82 3d
       0.19272146 0.036952227 -0.11670998 0.06372458
000050 ac e5 eb bd c0 2c f0 bc fc f3 cf bd ae d2 29 3e
       -0.11518416 -0.029318213 -0.10153958 0.16584274
000060 2a 14 4a be 8c 09 ec bd 6c 93 90 bd fe ec 19 be
       -0.19734254 -0.115252584 -0.070593685 -0.15031812
000070 f0 4b c1 3c 8a d8 7c be 28 32 67 3e c0 76 59 be
       0.02359578 -0.24691978 0.22577727 -0.21236706
000080 dd c2 f6 bf 3f 35 7a bd 26 06 ac bd a4 86 94 3d
       -1.9278218 -0.061085936 -0.0839961 0.07252243
000090 4d 71 e4 bd 06 0f 1c 3e 29 1b c6 bd fd 65 03 be
       -0.11154423 0.15240106 -0.09673149 -0.12831874
0000a0 af d2 ec bf ab ba b6 be ca 5f 75 3d 1a cd 78 3e
       -1.8501796 -0.3568929 0.059905805 0.2429699
0000b0 6f 7b 42 3e de ce 81 be 71 a2 f0 3e e6 1c 3d be
       0.18992399 -0.2535314 0.46998933 -0.18468055
0000c0 af ce 15 40 4a fd 34 bf 81 ed 2a be 57 d7 79 bc
       2.34074 -0.7069899 -0.16692163 -0.015249095
0000d0 eb 18 dd bd a8 91 8a 3e e2 ff 3a 3e d1 79 17 3e
       -0.10795768 0.27064252 0.18261674 0.14792563
0000e0 07 b3 09 40 fd 89 5e bf 09 61 85 3e d1 e0 74 be
       2.151552 -0.86929303 0.26050594 -0.23913886
0000f0 0c 0d d7 bd 27 ed 92 bd 53 6c 89 be 04 46 9d 3d
       -0.10500535 -0.071741395 -0.26840457 0.0767937
000100 32 33 b9 bf 68 77 be 3f 79 47 7f 3e a3 0f 26 be
       -1.4468749 1.488019 0.24929608 -0.16216902
000110 a7 15 4a be 29 29 d9 bd df b6 95 3d 8c f5 25 3e
       -0.19734822 -0.10603554 0.073102705 0.1620695
000120 ca b5 69 bf 88 8a 1c 3f a7 af 83 be 2a 0f c4 bd
       -0.91293013 0.6114888 -0.2571995 -0.09573205
000130 6a c1 4a 3d 24 9e 17 3e 42 4d 8f 3e f6 9b a1 3e
       0.04950086 0.1480642 0.2798863 0.315643
000140 60 c1 f7 3f d2 4b d5 bf 94 ff 6b 3d f7 00 e4 bd
       1.9355888 -1.6663764 0.057616785 -0.111329965
000150 3a ca 25 3e 38 c5 28 be 4d a1 d9 3e 9e 4e 73 be
       0.16190425 -0.16481483 0.42505875 -0.23760459
000160 27 76 e5 3f c0 a0 b8 bf 3c 6a 18 bb 46 be 07 be
       1.7926682 -1.4424057 -0.002325668 -0.13256177
000170 e5 19 06 3e 6c ca 2b 3e 60 d8 9c be b5 51 91 bc
       0.13095815 0.16776437 -0.3063383 -0.017739156
000180 d2 68 6a 3e f4 c3 ac bd 2c 83 b5 bd 48 b4 77 be
       0.22891548 -0.084358126 -0.0886291 -0.24189866
000190 84 9a 12 be 88 cc 7f 3d 38 29 07 bd aa d3 39 be
       -0.14316756 0.062450916 -0.032998294 -0.1814715
0001a0 40 28 c0 3b 6e de 2e be 86 30 59 be 3a f8 0c be
       0.005864173 -0.17077038 -0.21209916 -0.13766566
0001b0 e6 0d 60 be 44 01 23 be 5e e6 7f 3e 70 68 41 3d
       -0.21880302 -0.15918452 0.24990222 0.04721874
0001c0 1c c7 9d 3d 66 c4 6e be 54 22 28 be 14 6c aa bd
       0.07703993 -0.23317108 -0.16419345 -0.083213955
0001d0 c0 1f 20 3d 86 42 61 be 64 9b dc bd 58 42 19 be
       0.03909278 -0.21998033 -0.10771826 -0.14966714
0001e0 00 9e 35 3a 50 84 be bd f0 ea 8d bc 24 79 2d be
       0.0006928146 -0.0930258 -0.017323941 -0.16940743
0001f0 98 b7 2f be d2 59 15 be 9c 41 af bd 50 0e 4a be
       -0.17159879 -0.14585045 -0.08557436 -0.19732022
000200 45 f7 10 40 32 f7 f5 be be dd 0a 3e db cc 54 3c
       2.2650921 -0.48040158 0.1356115 0.0129882945
000210 b2 ac 8a be 19 80 bd 3d 91 1c f4 bd bc ce 57 be
       -0.2708488 0.09252948 -0.11919511 -0.21074957
000220 73 9a ca 3f 99 13 0e bf a4 93 6c 3d 00 74 6b be
       1.5828384 -0.55498654 0.05775799 -0.22993469
000230 bf 09 4c be 23 7f 65 be ab 14 92 be 22 b7 56 be
       -0.19925593 -0.2241178 -0.28531393 -0.20968297
000240 22 09 eb bf 69 87 2d be b3 86 92 3d 81 ae f2 3d
       -1.8362162 -0.16946186 0.07154598 0.1184969
000250 23 1e 08 3e 8e d6 8f be 32 c5 ff 3c 15 09 f7 bd
       0.13292746 -0.2809338 0.03122196 -0.12062279
000260 c1 03 c9 bf 8e f4 21 bf 63 9e 0d 3e b7 22 03 be
       -1.5704271 -0.63263786 0.13829951 -0.12806211
000270 92 d4 90 3e 96 19 f0 bc e9 dd f6 3e c6 a0 7f be
       0.28287178 -0.029309075 0.4821618 -0.24963674
000280 0c b1 68 3e 40 06 61 3d 38 ba 03 3d ea 99 61 be
       0.22723788 0.0549376 0.032160014 -0.2203137
000290 84 ee d6 3d 00 9f 19 bd 44 8f ea bd ec e3 5b 3e
       0.10494712 -0.03750515 -0.11453107 0.21473664
0002a0 b0 4c 64 3d 86 a3 0d be 52 92 01 be 80 9b 43 bc
       0.055737197 -0.1383191 -0.12653473 -0.01193893
0002b0 c4 f0 0e 3e 54 d5 82 bd 32 11 12 be ac 54 af bd
       0.13959032 -0.06388345 -0.14264372 -0.08561072
0002c0 8d 0b e7 3f 2b 33 1e bd 94 ab 10 3e d2 b3 7d be
       1.80504 -0.038623016 0.14127952 -0.24775627
0002d0 d3 d3 b7 3d cb e3 cd 3d 3c d4 1e 3d 18 13 0c be
       0.08975949 0.10053214 0.03877662 -0.13679159
0002e0 9c 23 ed 3f fa 82 6f 3e 8f 0f 8c 3d eb 5c 48 be
       1.8526492 0.23389807 0.06838905 -0.19566695
0002f0 0a f4 90 be 7d 46 21 3d 66 f0 01 bf 64 62 9f bc
       -0.28311187 0.039373863 -0.50757444 -0.019456096
000300 de 10 0c c0 4c b0 dd 3f 3f bb 8f bd 48 89 10 be
       -2.1885295 1.7319427 -0.07018136 -0.14114869
000310 7b 5f fd bd 90 a8 06 bd b3 31 7e be 45 82 c5 bc
       -0.12371727 -0.032875597 -0.24823646 -0.024109969
000320 a0 80 19 c0 f3 53 cb 3f 71 72 18 3e 54 87 e4 3d
       -2.3984756 1.5884994 0.14887406 0.11158624
000330 1a 4f 8e bc 56 79 6a be 3d 1f e8 bc 09 7b d0 be
       -0.017371703 -0.22897848 -0.028335208 -0.40718868
000340 41 97 1d 40 c2 4e 45 bf e0 a5 9c 3d f8 59 ef 3d
       2.4623568 -0.770733 0.07648826 0.11687082
000350 0d da ff bd 84 b9 46 be e1 27 8c 3d a1 a9 7c 3e
       -0.12492762 -0.19406706 0.06843544 0.24674083
000360 74 68 11 40 b7 e8 3b bf 43 9e 58 3d 41 51 74 be
       2.2720003 -0.7340197 0.052885305 -0.23859121
000370 87 8f a3 be db d0 4d 3e 5d 42 09 bf 05 2c ac 3d
       -0.3194544 0.20099203 -0.5361689 0.084068336
000380 0e 36 ca bf af 0a b6 3f b6 8a a4 3d c0 a8 5c bc
       -1.5797746 1.422201 0.080342695 -0.0134679675
000390 27 02 83 be 7d 9b 86 be 8e 2a 12 bf 92 9d 0a 3e
       -0.2558758 -0.26290503 -0.57096183 0.13536671
0003a0 1a e0 8e bf 65 79 9e 3f 95 85 12 3d f4 43 02 bd
       -1.116214 1.2380797 0.035771925 -0.031803086
0003b0 78 17 f8 bd 85 17 89 be 26 5e ce be 79 bb c5 be
       -0.12113851 -0.26775756 -0.40306205 -0.38619593
0003c0 e4 97 d1 3d 28 60 fb bd 28 15 4e bd 50 54 13 be
       0.10234049 -0.122742 -0.050313145 -0.14387631
0003d0 d0 98 3a bd 86 2e 34 be 40 46 27 be 00 d6 a9 3d
       -0.04555589 -0.17595872 -0.16335392 0.082927704
0003e0 20 2a 98 bd 34 0a 1e 3e 0c 41 a4 bd 10 cb 3b be
       -0.0742991 0.1543358 -0.08020219 -0.18339181
0003f0 68 ac 34 bd d0 30 f8 bd 60 a4 9c bd fc b5 73 be
       -0.044109732 -0.12118685 -0.076485395 -0.2379989

network.0.bias f4 [50]
000000 d1 25 02 be 74 5c cb 3d 4f b7 a0 be 62 85 5d 3e
       -0.12709738 0.099297434 -0.31389853 0.21632913
000010 59 3d 65 be 97 0e ec 3d 78 bb 15 3d 60 0b f8 3d
       -0.22386684 0.1152622 0.036555737 0.121115446
000020 39 0c c3 3d 2b 28 d7 bd 18 f5 fb bd 22 a3 29 bb
       0.09523816 -0.10505708 -0.12302607 -0.0025884588
000030 a5 36 99 be 4c b8 6e 3e cb 50 4f be 20 32 68 bd
       -0.29924503 0.23312491 -0.20245664 -0.056688428
000040 15 5e 0f 3e ab 9e 82 3e d4 be 85 bd 85 30 73 3d
       0.14000733 0.2551168 -0.06530538 0.059372444
000050 48 3d 7d bd 55 8b 14 3e 66 7a 11 be 64 fa dc be
       -0.06182602 0.14506276 -0.14206848 -0.43159783
000060 04 0a 94 bd 60 c6 4f 3c a4 a6 19 3e 0e 24 12 be
       -0.07228473 0.012681574 0.15004975 -0.14271566
000070 dc 2a 00 3e c4 7d b7 bd 79 5b 8a 3e 80 77 42 bc
       0.1251635 -0.08959535 0.27022913 -0.011869311
000080 3c 47 60 be 16 b1 16 be 10 c9 e1 3d cc ee fd 3d
       -0.21902174 -0.1471599 0.11024678 0.123990625
000090 0c a9 2b be c0 a2 aa bc 90 2a 8b 3c 98 63 0c be
       -0.16763705 -0.020829558 0.016988069 -0.13709867
0000a0 e2 4f e1 bd 46 31 98 be 90 2b 37 be 7f c0 67 3c
       -0.110015646 -0.29725093 -0.17887712 0.014145016
0000b0 67 e0 05 bf 9c 3b 16 be b7 76 08 3e 6f 56 ec 39
       -0.52295536 -0.14671177 0.13326536 0.00045077826
0000c0 09 c9 71 3e e0 a2 3c 3e
       0.23611845 0.18421507

network.2.weight f4 [50, 50]
000000 ad 84 b3 3d db 35 64 bd 8c 7e 5a bd 5c 11 7e bd
       0.0876554 -0.055715423 -0.05334334 -0.062028274
000010 d1 4a 3e bd d1 5a 92 bc 2a 9d c1 3d e5 6e 5f 3d
       -0.04645807 -0.01786557 0.09453805 0.054549117
000020 2b fc 06 3e cc b9 02 3e 43 4e f5 3c d4 1f 04 be
       0.13182132 0.12766188 0.029944545 -0.12902766
000030 6f a5 28 3e b0 cc 13 be 23 76 7f bd 64 5b f2 3d
       0.16469358 -0.14433551 -0.062368523 0.11833838
000040 f7 e3 0b 3e f6 a4 8c bd cc 3d 11 3c 4d 5e d0 bd
       0.1366118 -0.06867401 0.008864831 -0.101742364
000050 d0 d0 7e bc 58 c5 bb 3d 9f 83 13 3d 2d 9d 07 3d
       -0.0155527145 0.091685 0.036014196 0.03310888
000060 93 91 f0 bc 4b 09 4a bd 6b a0 ac 3d 8e e3 0e 3c
       -0.02936629 -0.04932527 0.08429035 0.008721245
000070 2a 6d bc 3d 9f 0e cd bc 99 f5 93 3c 15 1a 6f 3d
       0.09200509 -0.025031386 0.018061446 0.058374483
000080 34 be b8 3c 0e 54 a2 3d 11 72 95 3d 9b 3b 06 3e
       0.022551633 0.079261884 0.07297147 0.13108675
000090 4b a9 de 3d 86 1d 14 bd 9b 4c f1 bd 63 cc d3 3c
       0.10872134 -0.03616097 -0.117821895 0.025854295
0000a0 1b 73 83 3a 2e 5b de bd 12 00 c2 bc 2d d6 f5 bb
       0.0010028811 -0.10857235 -0.023681674 -0.0075023384
0000b0 c7 4d 12 3e 3d bc f0 3a c9 84 b9 bd 22 a1 eb bd
       0.14287482 0.0018366646 -0.0905853 -0.11505343
0000c0 4c d9 12 bd 3e 35 d4 bd fd bb f9 3d d4 66 99 3d
       -0.03585176 -0.10361718 0.12194059 0.07490316
0000d0 3e d2 fa 3d 31 89 9c bb f9 a3 e9 3c 66 73 33 3d
       0.12247132 -0.0047770967 0.028520571 0.043811224
0000e0 57 13 09 be 88 e7 4e 3c b6 a7 70 bc 5b 17 ad bd
       -0.13386284 0.012628444 -0.014688423 -0.0845172
0000f0 05 bd e0 bd c7 b1 f5 3d d7 c7 e0 3d 8c 0d 77 3d
       -0.109735526 0.11996799 0.109756164 0.060315654
000100 ff d5 04 3e ac 11 6b bd 76 1a c8 bc c0 51 5b 3d
       0.12972258 -0.0573899 -0.02442668 0.05354476
000110 3f 6b bf bc 95 16 07 bd 33 1b fa bd 59 35 06 3d
       -0.023366569 -0.03298052 -0.12212219 0.03276572
000120 28 08 af bd 76 ec b3 b8 0a 31 0d 3e 41 4e 32 bd
       -0.085464776 -8.5794294e-05 0.13788238 -0.04353166
000130 1d 94 36 bd f2 bc ae 3d af f7 54 bd 69 fb 46 bc
       -0.044574846 0.08532132 -0.051994022 -0.012144902
000140 97 dd 01 3e 6f 7b 6d bd 77 34 cf bd 14 17 a2 bd
       0.12682186 -0.057979044 -0.10117429 -0.07914558
000150 0c 99 20 bd f5 6d 89 bd 77 4c 96 bd 5a fd 69 3d
       -0.039208457 -0.06710426 -0.07338803 0.05712638
000160 7d e0 c4 3c 44 66 39 bd de b9 eb bd 9b cd 4b bd
       0.024032826 -0.045263544 -0.11510061 -0.049756628
000170 a1 78 74 bd b7 80 3c bd de fe 07 be ef be ce 3c
       -0.059685353 -0.04602119 -0.13280818 0.025237529
000180 d5 81 df bd 79 90 e1 bd b2 58 f7 bd 8d 5b 5c 3d
       -0.10913435 -0.11013884 -0.12077464 0.053798247
000190 8e eb ee bd 41 17 6f bd 8c 7e a2 3d 29 81 32 3d
       -0.11666022 -0.058371786 0.07934293 0.043580208
0001a0 64 12 a6 3d a8 87 26 be bd b1 cf bd 81 ad 5a bd
       0.081089765 -0.16262686 -0.10141323 -0.053388122
0001b0 71 43 ef 3d 60 cc 8b bc 3a 9d d8 bd da 56 f9 bc
       0.11682785 -0.017065227 -0.105768636 -0.030436922
0001c0 08 bf 10 be ed d4 fd bc 57 48 1f bd ef b8 fa 3d
       -0.14135373 -0.03098532 -0.038887348 0.122423045
0001d0 82 2b 4f 3c 5a 03 ca bc 3d b5 c3 3c bf 30 94 bd
       0.01264465 -0.024659801 0.023890132 -0.0723586
0001e0 8c 6e c5 3c 20 15 c8 3c fc 8e 1b 3d 16 6c b1 bd
       0.024100564 0.024424136 0.037978157 -0.08663194
0001f0 4f 19 f7 3d 8c 41 a7 bc 2e 84 61 bd 62 66 b5 3d
       0.12065374 -0.020416997 -0.055057697 0.088574186
000200 ce 10 ec 3d 52 1d 10 3e a1 80 2a 3c 82 77 45 bd
       0.11526643 0.14073685 0.010406644 -0.048209675
000210 eb 19 93 3d 7c 7d f8 3d 3b 0a 0e be a6 86 8f bc
       0.07182678 0.12133309 -0.1387109 -0.01752026
000220 b0 84 c5 bd f8 e6 d7 3c ed 92 6f 3d 46 56 ef bc
       -0.09644449 0.026355252 0.05848973 -0.029215943
000230 96 9d 31 bd a3 13 04 3d 78 b6 c2 bc e4 39 f3 bd
       -0.043363176 0.03224529 -0.023768649 -0.11876276
000240 a4 32 a7 3d 2f 2d d2 bd 4c ab 40 bd 07 8f 5a 3c
       0.08163956 -0.10262524 -0.04703836 0.013339764
000250 4e 3f 0b bc 01 65 28 be f7 e1 84 3d 3b 8f 83 bd
       -0.00849898 -0.1644478 0.06488412 -0.064238034
000260 49 38 96 bd 05 65 0a 3d bc 25 97 bd 11 db 85 bd
       -0.07334954 0.033787746 -0.07380244 -0.06535924
000270 a9 2e 43 bd 9f 9d 59 bd e6 eb 71 bd 00 38 1c bd
       -0.04765192 -0.053128835 -0.05906286 -0.038139343
000280 40 89 16 3d e3 5f ea bd d3 4e af bd 84 3c 07 3b
       0.036751986 -0.1144407 -0.085599564 0.0020635435
000290 1e 1d a1 3c 04 f6 9f 3d 13 73 cb bd 0c e6 38 3d
       0.019667204 0.07810596 -0.09934058 0.045141265
0002a0 8f 9f a4 3d 0f d2 a0 3d 5e e2 06 be 7c 0c 5d bd
       0.08038246 0.078525655 -0.1317229 -0.053966984
0002b0 f1 f4 f8 bd 22 48 b7 bd c9 51 a1 3d 5b fd ac bc
       -0.12156094 -0.08949305 0.078769274 -0.021116903
0002c0 e4 04 76 3d e4 03 aa bd 96 0c b0 3c 82 2f af bd
       0.060063258 -0.08301523 0.021490376 -0.08553983
0002d0 c1 c8 90 3d 64 5b 7d bd 55 41 11 bd fa 4a fb bd
       0.07069541 -0.061854735 -0.035462696 -0.1227016
0002e0 1a f1 f4 39 da 7f 09 3e 9e 94 8c 3d ad 87 9a bd
       0.0004671894 0.13427678 0.06864284 -0.07545409
0002f0 5f 4a f9 3a 8b 0f 7e bc a6 2c e9 bd d9 18 e3 3d
       0.0019019357 -0.015506635 -0.11385469 0.11088724
000300 d2 68 15 3b 50 fb f3 3c 39 ec 69 bd 1c 86 87 bd
       0.0022798073 0.029782921 -0.057110045 -0.06617376
000310 4c 07 bf 3c d2 28 56 3d 63 ed 01 3d 11 96 8b bd
       0.02331891 0.052285023 0.03172053 -0.06815732
000320 32 5c 06 3e 30 8a aa bc be de 93 bd 2e f2 fc bd
       0.13121107 -0.020817846 -0.07220219 -0.123508796
000330 d7 cb 33 3e 87 d3 93 bc 4e 43 9d bc 11 11 71 bd
       0.17558227 -0.0180452 -0.019197132 -0.058854166
000340 d0 53 18 bd fd 5b 03 be 39 2a e6 bd 13 de a9 3d
       -0.037189305 -0.1282806 -0.11238522 0.082943104
000350 11 b8 13 3e d9 05 02 3e 26 9a ea bd 97 a6 9c 3d
       0.14425685 0.12697543 -0.11455183 0.07648962
000360 7a 3d 13 be e8 0d 75 3c 05 fc d0 3d 83 87 e7 3d
       -0.1437892 0.014956929 0.10204319 0.11305144
000370 c2 63 d6 3d 0b bc d7 3d 95 64 34 3b 68 4d 8a 3d
       0.10468246 0.10533913 0.0027525772 0.06753045
000380 39 3e 4f bd 16 3b 7c 3d 08 2d 3a bd 18 a0 1b bb
       -0.05059645 0.061579786 -0.0454531 -0.0023746546
000390 b2 16 fc bd 58 76 17 bd a4 d8 72 be a8 65 43 bd
       -0.12309016 -0.036978096 -0.23715454 -0.04770437
0003a0 55 f4 b8 bd 42 16 0c be c0 72 bd 3a e7 f6 bb 3d
       -0.09030978 -0.13680366 0.0014453754 0.09177952
0003b0 ff e3 03 3e ee 03 a9 3d 0b fe 98 bd 53 39 0f be
       0.12879942 0.08252703 -0.0747033 -0.13986711
0003c0 25 fa 38 3d e0 b9 ff 3d d3 a6 f8 bd 87 bf 1a bd
       0.04516043 0.12486625 -0.12141194 -0.03778031
0003d0 56 5e 16 3e d9 f3 96 3a 07 50 c6 bd 34 ed 33 3d
       0.14684424 0.0011516764 -0.09683233 0.043927386
0003e0 34 af 66 3d 66 6c bf 3d 8b df c3 bd a8 8c a8 3d
       0.05631943 0.09346847 -0.09564122 0.08229953
0003f0 da d6 c5 bd 4a 4b 0f 3e e1 6e 75 bd a7 85 ae 3d
       -0.0966012 0.13993564 -0.059920195 0.08521586

network.2.bias f4 [50]
000000 a9 54 91 bd d6 fa b3 3c ba fc fc 3c 54 9e 9b 3c
       -0.07096226 0.021970194 0.030882228 0.018996395
000010 2b 7c c8 be 39 02 d1 3d 54 17 b4 bc cf cb 38 bd
       -0.39157233 0.10205502 -0.02198378 -0.045116242
000020 45 d0 8a 3d 84 8a 93 bd f2 d0 77 3c 61 62 f6 bd
       0.067780055 -0.07204154 0.0151255 -0.12030483
000030 5d c9 78 3d d1 83 97 be d9 c9 15 be ca d5 8b 3d
       0.06073891 -0.29592755 -0.1462778 0.068278864
000040 46 fd 7e 3c e4 9e 91 be ce fb a6 3e 46 0b 21 3d
       0.015563315 -0.28441536 0.32613987 0.03931739
000050 46 5b 53 3e 9c a4 81 bd 07 99 b1 bd d5 d7 9b bd
       0.20640287 -0.06330225 -0.08671766 -0.07609526
000060 d9 20 a0 3d de 24 6f bd 5b f9 af bd 1a f3 c4 3d
       0.07818765 -0.05838477 -0.08592483 0.096166804
000070 0c 4c 5d be 18 4b 92 3e 83 7e 76 3d e0 b2 b5 bd
       -0.21611041 0.28572917 0.060179245 -0.08872008
000080 bc 4c 18 3d d9 c8 a4 be 90 b6 70 be ad 01 90 bd
       0.037182555 -0.32184485 -0.23507142 -0.0703157
000090 fc 6f f8 bc 8a bb 8d bd ec 5d 19 be 90 6f ff be
       -0.030326836 -0.06920536 -0.14977235 -0.49889803
0000a0 31 85 05 bd f2 58 60 be 24 e3 f9 3c cc b1 20 ba
       -0.032597724 -0.2190893 0.030503817 -0.00061300094
0000b0 9e 5e 0c 3e eb 9a 19 3c 83 9f de 3d 7a f4 51 bc
       0.13707969 0.009375314 0.10870268 -0.012814635
0000c0 45 57 6e 3d 0e ac c5 3d
       0.058188695 0.096519575

network.4.weight f4 [50, 50]
000000 ed 85 da bd 2f 0b 96 bd 2f 3f 7e 3d 20 71 d1 bd
       -0.106700756 -0.07326352 0.062071975 -0.10226655
000010 85 f6 23 3d a7 cd 85 3d 42 8f a7 3c 32 7b 7b bd
       0.04003002 0.06533366 0.020454053 -0.061396785
000020 e4 0e 15 bd 6f ff e4 bd 9e ad e9 bd 8d 5f 08 3e
       -0.036391154 -0.111815326 -0.11410068 0.133177
000030 89 e3 01 be 2a 77 1c be 41 03 61 bd 87 1e 02 3c
       -0.12684454 -0.15279832 -0.054934744 0.007941849
000040 b4 ab 04 3d e0 49 c8 bd 6b ad 2b bd d6 5a 01 bd
       0.03239031 -0.097797155 -0.04191343 -0.03158077
000050 46 2c ae 3d e8 62 fb 3d f7 14 6e 3d ed 84 64 ba
       0.08504538 0.12274724 0.058125462 -0.0008717317
000060 36 34 d9 3d f3 4f 3b be 8e 06 72 3d f0 c2 ad bd
       0.106056616 -0.18292217 0.059088282 -0.08484447
000070 5b 02 8d 3d d3 65 18 be f1 39 57 3d 3a 21 ee bd
       0.06885215 -0.14882593 0.05254549 -0.11627431
000080 e7 0a a9 3d cd 3d 45 bd 64 1b b6 3d d8 71 da bd
       0.082540326 -0.04815464 0.08891943 -0.10666245
000090 d1 6f 89 3d fb 0e cf bd 23 8e a6 bd 2b 2b 2d bd
       0.067107804 -0.10110279 -0.08132579 -0.042277496
0000a0 ac 01 c3 bc a8 6a 49 be 65 73 f6 bd 13 64 16 bd
       -0.023804508 -0.19669592 -0.120337285 -0.036716532
0000b0 7e 1b aa 3c 11 66 fe 3d b9 d3 b7 3c a7 e4 17 3b
       0.020765062 0.12421811 0.022439824 0.002317706
0000c0 f4 e4 0b be 5e 1c 01 be 45 3d 39 3e 08 30 ac bd
       -0.13661557 -0.12608477 0.18089779 -0.08407599
0000d0 9e c0 cb bc 21 b5 e9 bd 3a ac 12 be 6e cb e0 3c
       -0.02487212 -0.11411501 -0.14323512 0.027440753
0000e0 a9 34 0f bd 05 7f 75 bc 4c b8 58 bc a7 19 ec 3b
       -0.03496233 -0.014983897 -0.013227534 0.0072052064
0000f0 0f f8 2c be 65 33 b3 bb fa a4 c6 3c 85 29 d0 3d
       -0.16891502 -0.005468773 0.024248589 0.10164169
000100 fc cd f4 3d 6a b2 05 be ea d3 f4 bd 89 9b b2 bc
       0.11953351 -0.13056341 -0.11954482 -0.02180268
000110 1b 31 a6 3d d9 d5 00 3e f1 d4 1f 3e 87 98 17 3d
       0.08114835 0.12581576 0.15608574 0.037010696
000120 83 b6 cd bd 13 22 83 bc 7a 13 2e 3d 78 57 47 3d
       -0.10044577 -0.016007459 0.042499043 0.0486674
000130 45 ee c2 bd 44 f6 43 3b 57 d9 d2 bd 5d 63 f5 bc
       -0.095181026 0.0029901424 -0.102953605 -0.029954607
000140 0f 20 01 3e 40 46 7b bd 78 a3 c0 3d 5a a2 20 be
       0.12609886 -0.061346292 0.09406179 -0.15686932
000150 31 75 fe 3d d2 27 8a 3d 32 33 3e 3d 91 6f 16 3d
       0.12424696 0.06745876 0.046435542 0.03672749
000160 38 49 0b 3c 3b 53 8d bd f8 d0 9f bd df fb 03 be
       0.008501343 -0.069006406 -0.078035295 -0.1288905
000170 37 5d ef 3d a5 33 ff bc 91 2c 91 bc 5c 24 08 be
       0.11687701 -0.031152556 -0.017721446 -0.1329512
000180 f7 e8 a7 bd 9e 2e 57 bd f3 ee d9 bd e1 61 8f 3c
       -0.081987314 -0.052534692 -0.10641279 0.017502727
000190 f7 38 27 be d0 49 64 bc 68 86 ec bd 11 1b b7 3d
       -0.16330324 -0.013933614 -0.115490735 0.089407094
0001a0 34 8e 08 be 66 37 bd 3c da 68 8f 3d 48 6b e7 bd
       -0.13335496 0.023097705 0.07002421 -0.11299759
0001b0 e8 f5 9a 3d 1e e1 eb 3d fb 8a b1 bd ba 05 42 3c
       0.07566434 0.11517547 -0.086690865 0.011842186
0001c0 3f a8 2f 3d 27 a4 b5 3d a2 47 e2 3d 25 f2 f2 bd
       0.04288506 0.088692 0.11048819 -0.11862592
0001d0 93 11 ec bd 61 15 16 be d1 09 ec bd 45 db e9 bc
       -0.115267895 -0.14656593 -0.1152531 -0.028546939
0001e0 17 dd f4 bd 2b d8 be 3d 0c 9b c7 bd 7f 29 e7 bd
       -0.11956232 0.093185745 -0.0974637 -0.112872116
0001f0 c9 68 e2 bd cd 48 e2 bd 76 d7 0d 3e cc 4c 92 3c
       -0.110551424 -0.11049042 0.13851723 0.017858885
000200 8d 6a 71 bd d3 3b 2a bd d8 d5 dd bd 5d 88 44 bd
       -0.058939505 -0.04156096 -0.10831803 -0.04798161
000210 ab 95 98 3d 49 1a 9f 3d e3 39 9f 3d b1 f5 24 3c
       0.07450422 0.07768685 0.07774713 0.010068343
000220 18 e8 9d bd 6a 9f 5b bd 4c bd 0c 3e 84 0e 23 be
       -0.07710284 -0.053618826 0.13744086 -0.15923506
000230 18 23 09 3d 3c d3 00 bd eb 74 06 3e 6e a7 a9 3d
       0.033480734 -0.03145145 0.13130538 0.08283888
000240 aa 53 5b bd f6 52 f0 bd b3 d0 d5 38 5b 94 ca bd
       -0.053546585 -0.117345735 0.00010195505 -0.09891578
000250 27 5f 74 bc 2c 09 11 3d fd 77 7e 3d 64 aa 1c bd
       -0.014915264 0.035409138 0.06212615 -0.038248435
000260 8c d3 83 bd 75 ab f6 bd 54 01 d7 bd 23 51 91 3c
       -0.06436834 -0.120444216 -0.104983 0.017738884
000270 e0 47 b0 bd 33 59 78 3d ce 56 87 bd 6f 00 c4 bd
       -0.08607459 0.060631942 -0.066083536 -0.09570395
000280 11 50 49 3e 46 e8 a3 3d 7e 97 cd 3d fc 60 db 3d
       0.19659449 0.08003287 0.100386605 0.10711858
000290 2b 8f d1 bd 0e cf 6a bd 0e 0c da bd e1 a9 31 3d
       -0.10232385 -0.05732637 -0.106468305 0.0433749
0002a0 53 97 82 3e 1b ee b1 3d 00 10 2e bd 76 98 9f bd
       0.25506076 0.08687993 -0.042495728 -0.077927515
0002b0 7c 79 08 3e 40 fd e5 bd 74 10 a6 bd 54 2b c6 3d
       0.13327593 -0.11229944 -0.08108607 0.09676233
0002c0 49 94 02 be e5 19 cb bc 73 ba 99 3d 02 4d ba 3d
       -0.12751879 -0.02479262 0.075062655 0.09096719
0002d0 73 f5 19 bc 8b dd c4 bd 7b 25 94 3d c2 99 0b 3e
       -0.009396899 -0.096125685 0.07233711 0.13632873
0002e0 6b cd 90 bd 0a bb cc bb 78 db ef bc 5f 14 4f bd
       -0.0707043 -0.0062478827 -0.029279456 -0.050556537
0002f0 8e f0 54 3d 08 c5 de 3d 2d 92 21 3d 44 60 e4 bd
       0.051987223 0.108774245 0.039446045 -0.11151174
000300 b3 6d 0c bd 24 08 2b 3d 4a e4 b6 3c 87 14 33 bd
       -0.034284305 0.04175581 0.022325654 -0.04372075
000310 00 77 b8 be 90 4f 09 3e d6 fe cd bd c0 25 e4 bd
       -0.3602829 0.13409257 -0.10058372 -0.11140013
000320 b6 c3 be 3d 1f 37 a5 bd 39 b5 ee 3d 20 a8 9f bd
       0.09314673 -0.08067154 0.11655659 -0.07795739
000330 6b 25 a2 bb 98 f0 8b bd 2c 4c ef 3d 2b 15 8c 3d
       -0.004948308 -0.06832999 0.116844505 0.06839975
000340 ab fa a4 3c b4 3a 5e 3b 02 45 ff bd 54 d0 9a bd
       0.020139059 0.0033909502 -0.12464334 -0.07559267
000350 a2 ff 3c bd b4 c3 ae 3d ef a5 95 3b d7 0f ea 3d
       -0.046142228 0.08533421 0.0045669 0.114288025
000360 af cd a6 3c 8f 68 24 bc ef ca ea 3c ab aa d8 3b
       0.02036175 -0.010034694 0.02866122 0.006612142
000370 8f 7e 59 bd fb d9 fc 3c a2 19 44 3d 7c a8 d1 3c
       -0.05309921 0.03086566 0.047876008 0.025593035
000380 c7 2c f0 3d e8 4b 6a 3d 6c 38 35 bd e7 31 bb bd
       0.117272906 0.057201296 -0.04424326 -0.091403775
000390 68 7a b8 bd f3 e3 5f 3d bb 69 47 3d 76 62 a1 bd
       -0.09007722 0.05466075 0.048684817 -0.07880108
0003a0 5c e7 f6 3c 6b 8e da bc f7 9d 14 3e 84 a9 47 bd
       0.030139618 -0.026679238 0.14513384 -0.048745647
0003b0 aa fe db 3d 11 ef bf 3d 5f 98 a4 3d 7b 66 10 3e
       0.10741933 0.0937177 0.08036875 0.14101593
0003c0 0e 5b cd 3c 40 de 87 3d 09 3b f6 bd 65 28 50 bd
       0.025067832 0.06634188 -0.12022979 -0.050819773
0003d0 88 34 95 3c ed 87 8c 3d 36 5a 76 be 9a d1 8e 3d
       0.018213525 0.06861863 -0.2405785 0.06973572
0003e0 a8 71 e4 3d da c3 79 3d 11 c0 a0 3d 74 6a 9a bc
       0.11154491 0.060977794 0.07849134 -0.018849589
0003f0 aa bd 8a 3d e5 a4 46 bd 2b 41 cd 3d 5d dc 6d bb
       0.06774457 -0.0484971 0.100221954 -0.0036294677

network.4.bias f4 [50]
000000 34 da 1a 3c 69 6a 81 3e 85 57 e2 bc 8b 03 4e be
       0.009451438 0.25276497 -0.027629623 -0.20118539
000010 5f cf 0f bd 67 3a 31 be 82 5a 8c 3e e2 0d a2 bc
       -0.035109874 -0.17307435 0.27412802 -0.01978201
000020 be 2a ac 3c ec fe 16 be 4a 83 4b bd db 90 a2 be
       0.021016475 -0.14745682 -0.049685754 -0.3175114
000030 75 da 3d 3e 14 23 57 3c a3 4a 38 bd 8c 8e a1 bc
       0.18540366 0.013130922 -0.044993054 -0.019721292
000040 1f 6d 98 bd 9c 88 06 bd b7 ba 1d be e9 00 39 be
       -0.07442688 -0.032845125 -0.15403257 -0.18066753
000050 32 df cc 3d 30 c1 b7 bd e1 52 ca bd 09 9d 01 bc
       0.100035086 -0.089723945 -0.09879089 -0.007910975
000060 f3 cf 80 3d 8e 64 b3 bd b3 3e 16 be 9a ff ae bd
       0.06289663 -0.08759414 -0.14672355 -0.08544846
000070 dc c3 dd bd df 9f 50 bd cd de 2e be 61 a2 65 3d
       -0.10828373 -0.050933715 -0.17077179 0.05606306
000080 62 56 8a be 03 91 f8 3d 46 20 0c 3e 5b 01 01 be
       -0.2701903 0.12137034 0.13684186 -0.12598173
000090 3d 1c 20 bd 00 78 48 bd b9 ef 85 be 36 a2 9d 3e
       -0.03908943 -0.048942566 -0.26159456 0.3078782
0000a0 56 aa ca bc 10 f1 c1 3d ab cd 4c 3e 2f 2e 69 bd
       -0.024739426 0.09469807 0.20000331 -0.05692881
0000b0 ec 74 2b bd 26 a9 e2 bd ec f4 8d bd f8 7e cf 3d
       -0.041859552 -0.11067419 -0.06931481 0.10131639
0000c0 42 1f 9d 3d 79 19 fa 3c
       0.076719776 0.030529724

network.6.weight f4 [2, 50]
000000 a7 d3 75 bd 66 d4 f1 bd e4 49 e0 3d 01 c1 02 3e
       -0.0600163 -0.1180809 0.109515935 0.12768938
000010 5c 3e 16 3e 7a d3 e2 bd 3a 12 e8 be 1a 29 2e 3c
       0.14672226 -0.11075492 -0.45326406 0.010629917
000020 b2 9a 10 bd a9 91 13 3e fe df cf bd 7d ca ea 3d
       -0.03530378 0.14411034 -0.10150145 0.11464403
000030 b7 2a ab be 41 05 a9 bd 71 df 86 bd 68 85 c9 bd
       -0.33431026 -0.08252955 -0.06585587 -0.09839898
000040 c4 c0 9e bd 20 89 b6 3d b7 cc 13 3e 47 14 a9 3d
       -0.07751611 0.08912873 0.14433561 0.08255821
000050 7a df 09 bd c1 72 8d bd b4 cd 11 bd ef ab a9 3d
       -0.03366039 -0.06906653 -0.035596564 0.08284747
000060 1f ed b2 bc 17 63 ef bd 4c b3 0b 3e d1 ff b9 bb
       -0.021841584 -0.11688822 0.13642615 -0.0056762476
000070 c0 b0 4b 3d 54 14 79 bc 92 b0 77 3d 1b ec a3 bd
       0.04972911 -0.0152026005 0.060471125 -0.08004018
000080 3a af 74 3d d4 17 e0 3c 79 52 9d bb 98 5b c4 3d
       0.05973742 0.027355112 -0.0048010913 0.095877826
000090 01 0c d1 bc af 27 a4 bd f2 03 51 3d ee bc cb be
       -0.02551842 -0.080153815 0.051029153 -0.3979258
0000a0 35 a2 91 3b 07 5a 29 be 60 8b 47 bd 22 4e ea 3c
       0.0044443854 -0.16538249 -0.048716903 0.02860171
0000b0 6f e7 40 bd 67 56 18 be 1f 7f 5a be f3 c7 0d be
       -0.047095712 -0.1487671 -0.21337555 -0.13845806
0000c0 88 64 04 be bc 7b f6 bd 5f 5b 12 bd b3 47 3f 3c
       -0.12928975 -0.12035319 -0.03573167 0.011674809
0000d0 52 bf c8 3d 08 95 05 be 6f da 09 be ad e0 c6 bd
       0.098021165 -0.13045132 -0.13462232 -0.09710822
0000e0 3e b6 f8 3e 6c a6 a6 3c 8e cb 0d bd 58 9e 26 3d
       0.4857654 0.020343028 -0.034617953 0.040678352
0000f0 c5 f5 e4 bd 04 03 ab bc 29 4f bb 3e b1 0b 36 3d
       -0.11179689 -0.020875461 0.36583832 0.044444744
000100 03 08 71 bd 15 8d 4c bb 5a a3 13 3b e7 e9 2e 3d
       -0.05884553 -0.003121202 0.0022527785 0.042703535
000110 25 2a cd bd ef f8 c2 3d 05 a3 59 3d 89 a7 96 bd
       -0.10017804 0.095201366 0.053133983 -0.073561735
000120 c5 7f 70 bb 96 c7 ae bd 64 b5 39 bd 06 81 16 be
       -0.003669725 -0.08534162 -0.045339003 -0.14697656
000130 b2 95 68 bd 22 17 1e bd d7 66 a7 bd 72 eb 92 bd
       -0.056783386 -0.03859628 -0.08173912 -0.07173814
000140 44 ee 5e 3d ec 7f cb bd 08 1b 3a 3d 76 2b 21 3e
       0.054426447 -0.099365085 0.045435935 0.15739235
000150 ba dc 9f 3c 77 4a 10 be 3f 7f f6 3c 47 c2 ec bd
       0.01951443 -0.14090906 0.030089973 -0.11560493
000160 57 dc 51 3d c3 b2 32 3e 08 59 c8 bd c1 1c 09 3d
       0.051235523 0.17451005 -0.09782606 0.033474687
000170 e6 e2 80 3d 7b 42 de bd b5 05 7b bc fe 5e 95 bb
       0.062932774 -0.10852524 -0.015321185 -0.004558443
000180 7e e4 04 3d 68 0b 77 bb 65 f1 e7 3b 56 d9 2e 3b
       0.03244447 -0.0037696008 0.007078337 0.0026679835

network.6.bias f4 [2]
000000 0b 4d cc bd 80 17 52 3e
       -0.09975632 0.20516777
