models/ctg_pam.pth (torch, 29276 bytes, 8 tensors)

network.0.weight f4 [50, 24]
-0.39904827 -0.57292706 -0.1013312 0.12355604 -0.106734894 -0.026651993 -0.07335433 0.14393485
-0.28658947 -1.0345529 0.098738156 0.029711341 0.1924364 -0.08903337 0.3348379 -0.12374649
-0.4128145 -0.7213681 -0.1663188 -0.028923878 -0.17179064 -0.10752137 -0.07629975 0.14594853
0.40681326 -1.1294506 -0.022849314 0.015793562 0.26279655 -0.11075088 0.58437586 0.098998986
0.7231643 -1.1990548 -0.16352406 0.18728477 0.29643238 0.13806474 0.3509268 0.09742601
0.4895311 -1.072779 0.05914096 0.18935975 0.23524618 -0.09503071 0.30630705 0.20998117
0.050696805 -0.20343201 -0.45221725 -0.2796507 -0.31837866 -0.011928527 -0.19528383 -0.041216344
0.0649571 -0.2780865 0.023378184 -0.3315299 -0.20204462 -0.3053429 -0.16584533 -0.24249877
-0.2512461 -0.35459536 0.13404226 -0.28594422 -0.46798852 -0.2599421 -0.12810127 -0.2648477
1.5590881 -0.78551006 -0.207497 -0.07961691 0.010682893 0.097936906 0.38513672 0.2886499
1.3477852 -1.1687194 0.12017184 -0.016682982 0.29687473 0.060063325 0.17011893 0.070327915
1.1778787 -0.473041 0.07199919 -0.036221337 0.22991578 0.116027415 0.044254046 -0.0028579223
0.18690872 -0.06887812 -0.07236536 -0.19750944 -0.116895825 0.05099096 -0.026942994 -0.14817086
0.0047880774 -0.13943343 -0.17317826 -0.11240354 -0.17865193 -0.12997362 0.20404431 0.038553942
0.06290284 -0.19038339 -0.1340634 -0.067943916 0.03191912 -0.17961319 -0.08795159 -0.12220272
1.7451056 0.29196027 -0.04407101 -0.09397907 -0.05435656 -0.083829895 -0.054251038 -0.14297779
1.7208871 0.46950588 0.14530727 -0.036204297 -0.31980282 0.20260909 -0.47045714 0.041703057
1.5305492 0.08882393 -0.009595691 -0.044179037 0.15777119 -0.22056669 0.21123074 -0.15400277
-2.3251512 1.2875758 0.049105905 0.044431992 -0.00808888 -0.24300748 -0.20058237 -0.22034095
-2.0678763 1.5146185 0.14201446 -0.09395662 0.152127 -0.0008935839 0.32310903 -0.27739948
-2.0236933 1.2508616 -0.013464872 -0.25226602 -0.06672854 -0.05215698 -0.28876048 0.086960465
-0.050370384 -0.2880873 -0.2540738 -0.14337973 0.0033832574 -0.18671179 -0.24863343 -0.1879747
-0.24165703 -0.12445224 0.04702031 -0.30531344 -0.05995514 -0.0073243747 -0.07670504 -0.18140298
-0.05534041 -0.16274545 0.06397614 -0.098903045 -0.19315802 -0.035169985 -0.1541676 -0.22791797
-2.1591017 1.3690789 -0.037980292 -0.1666084 -0.21713817 -0.074503444 -0.26605055 -0.10485806
-2.2688115 1.4951104 0.13647294 0.09058944 -0.047889445 -0.21609165 0.025169004 -0.3971632
-2.1671107 1.306964 0.048046842 0.0685286 -0.2841603 -0.09782653 -0.18849641 0.1478466
1.6828141 -0.3141873 -0.020630885 -0.08676303 -0.070157126 0.10340213 -0.024883635 -0.095227376
1.2096844 -0.093754925 0.080586575 -0.047308106 -0.27712148 -0.21199436 -0.4870936 0.18924898
1.7170908 0.006186613 0.10246565 0.06998997 0.094452605 -0.18347266 -0.041976195 -0.20632735
-0.18386765 -0.32652336 -0.30501655 -0.40435785 -0.32149765 -0.43126556 -0.41493738 -0.20938087
-0.32722193 -0.14725596 -0.3695985 -0.45645794 -0.32829344 -0.40339288 -0.36990848 -0.47805542
00000000: 0e50 ccbe 59ab 12bf bb86 cfbd f30a fd3d
00000010: d397 dabd 4855 dabc cc3a 96bd a863 133e
00000020: dbbb 92be 3b6c 84bf 3b37 ca3d 3365 f33c
00000030: 0c0e 453e 2157 b6bd e06f ab3e cd6e fdbd
00000040: 6c5c d3be 94ab 38bf 7a4f 2abe c5f1 ecbc
00000050: e3e9 2fbe 2a34 dcbd 0b43 9cbd 8873 153e
00000060: d449 d03e d691 90bf 7c2e bbbc 8061 813c
00000070: 458d 863e 5bd1 e2bd a899 153f fbbf ca3d
00000080: 4c21 393f a17a 99bf da72 27be 94c7 3f3e
00000090: fcc5 973e d860 0d3e adac b33e 4a87 c73d
000000a0: d2a3 fa3e d350 89bf cb3d 723d 86e7 413e
000000b0: 60e4 703e 769f c2bd 47d4 9c3e 4e05 573e
000000c0: 74a7 4f3d 7b50 50be 0589 e7be 602e 8fbe
000000d0: 8702 a3be de6f 43bc 7cf8 47be 78d2 28bd
000000e0: 3a08 853d 5b61 8ebe 9b83 bf3c 49be a9be
000000f0: c9e4 4ebe e855 9cbe 5cd3 29be 9951 78be
00000100: 54a3 80be 868d b5be 6042 093e 4867 92be
00000110: 319c efbe 2217 85be fb2c 03be 1e9a 87be
00000120: 3390 c73f 3017 49bf 187a 54be 310e a3bd
00000130: 4d07 2f3c 2593 c83d a430 c53e ebc9 933e
00000140: 3a84 ac3f 9998 95bf a71c f63d c0aa 88bc
00000150: f7ff 973e f604 763d a833 2e3e 1508 903d
00000160: bbc4 963f 6e32 f2be 5074 933d d35c 14bd
00000170: 0b6f 6b3e c89f ed3d bb43 353d fb4b 3bbb
00000180: 0065 3f3e f90f 8dbd 4a34 94bd ea3f 4abe
00000190: 1467 efbd e6db 503d 8eb7 dcbc 1aba 17be
000001a0: 4ee5 9c3b a3c7 0ebe a455 31be d433 e6bd
000001b0: 88f0 36be ce17 05be fef0 503e bdea 1d3d
000001c0: 34d3 803d ddf3 42be ea47 09be 2e26 8bbd
000001d0: a0bd 023d 85ec 37be f71f b4bd 6b45 fabd
000001e0: 9f5f df3f d17b 953e ce83 34bd 1978 c0bd
000001f0: fca4 5ebd 02af abbd 5636 5ebd c568 12be
00000200: 0746 dc3f 1363 f03e 6ecb 143e f54a 14bd
00000210: 32bd a3be c278 4f3e c2df f0be d3d0 2a3d
00000220: 09e9 c33f 52e9 b53d 3f37 1dbc 14f5 34bd
00000230: c58e 213e 3cdc 61be df4c 583e e7b2 1dbe
00000240: 47cf 14c0 49cf a43f 4623 493d 52fe 353d
00000250: 3987 04bc f4d6 78be 7765 4dbe 0fa1 61be
00000260: 1658 04c0 05df c13f 3d6c 113e 546c c0bd
00000270: 2ec7 1b3e 673f 6aba 8c6e a53e 4e07 8ebe
00000280: 3184 01c0 3c1c a03f c49b 5cbc 0329 81be
00000290: f9a8 88bd 8fa2 55bd 6ad8 93be 5418 b23d
000002a0: 2d51 4ebd 2e80 93be f615 82be 23d2 12be
000002b0: a4b9 5d3b 6031 3fbe c399 7ebe 717c 40be
000002c0: f174 77be d1e0 febd 5e98 403d 0b52 9cbe
000002d0: 8593 75bd 4f01 f0bb 8817 9dbd b4c1 39be
000002e0: a0ac 62bd bea6 26be ec05 833d ae8d cabd
000002f0: 37cb 45be 670e 10bd 1dde 1dbe 5463 69be
00000300: b92e 0ac0 fa3d af3f 3991 1bbd 649b 2abe
00000310: 7859 5ebe 4395 98bd c737 88be d3bf d6bd
00000320: 3534 11c0 c75f bf3f 90bf 0b3e f586 b93d
00000330: b927 44bd 2147 5dbe 3a2f ce3c fa58 cbbe
00000340: f1b1 0ac0 994a a73f c4cc 443d b958 8c3d
00000350: 757d 91be 4759 c8bd 3405 41be 1965 173e
00000360: 7466 d73f 28dd a0be 1a02 a9bc d1b0 b1bd
00000370: 8aae 8fbd 7fc4 d33d c4d8 cbbc 9206 c3bd
00000380: f0d6 9a3f 9502 c0bd 930a a53d 25c6 41bd
00000390: dee2 8dbe 0d15 59be 5564 f9be 7cca 413e
000003a0: a2c9 db3f 12b9 ca3b 83d9 d13d e756 8f3d
000003b0: 5e70 c13d 42e0 3bbe 3bef 2bbd 7a47 53be
000003c0: cd47 3cbe 122e a7be 212b 9cbe fe07 cfbe
000003d0: 579b a4be d7ce dcbe ac72 d4be f067 56be
000003e0: a289 a7be 44ca 16be 043c bdbe dbb4 e9be
000003f0: 1416 a8be 8389 cebe a564 bdbe aec3 f4be

network.0.bias f4 [50]
-0.00094913406 0.49104062 -0.2853031 0.5779453 -0.0756543 -0.1877817 -0.23944053 -0.12256825
-0.2503636 0.20729998 -0.09326262 -0.5041043 0.13122395 0.44902664 -0.21092656 0.14432102
0.1245171 0.0022353965 0.098418966 -0.0713662 -0.09279514 0.05159852 0.10219914 -0.13340718
0.09900014 -0.18259217 0.16447115 0.07803247 -0.21956903 -0.39789072 0.20330966 -0.057000965
0.13856842 0.067086086 0.24048313 -0.3460014 -0.085148565 0.05566586 0.0057584154 -0.21299067
-0.32816625 -0.050614167 0.04773156 -0.3781401 0.13915484 -0.03253974 -0.19979495 -0.022113964
-0.18238212 -0.0119517725
00000000: 4fcf 78ba ad69 fb3e 3f13 92be 39f4 133f
00000010: a4f0 9abd d949 40be e62f 75be 1005 fbbd
00000020: a82f 80be 7246 543e 7900 bfbd fb0c 01bf
00000030: 925f 063e d2e6 e53e 22fd 57be e4c8 133e
00000040: d202 ff3d bb7f 123b e28f c93d 7128 92bd
00000050: 610b bebd f858 533d c84d d13d e49b 08be
00000060: 96c0 ca3d 71f9 3abe 206b 283e 7dcf 9f3d
00000070: b4d6 60be 55b8 cbbe 6830 503e d879 69bd
00000080: e1e4 0d3e 6e64 893d 3641 763e 1827 b1be
00000090: 5f62 aebd e301 643d 17b1 bc3b 3a1a 5abe
000000a0: 6805 a8be cd50 4fbd 2b82 433d 949b c1be
000000b0: 9b7e 0e3e 6448 05bd 0c97 4cbe 5828 b5bc
000000c0: 61c2 3abe 5ed1 43bc

network.2.weight f4 [50, 50]
-0.041649956 -0.18252854 -0.06756068 -0.068902194 -0.041702118 0.08972142 -0.08106706 0.057308853
-0.018226888 -0.16629583 -0.007050484 0.12490549 -0.09250381 -0.13757141 0.11496594 0.05602201
-0.083077624 0.0850996 -0.018092329 -0.13943148 0.089761056 0.045692395 -0.08717913 0.049198154
-0.12092953 0.1043686 0.09053777 0.028986573 -0.00623436 0.0024486063 -0.15601194 -0.055688623
-0.060091916 -0.07869903 -0.12570399 0.056313727 0.072716534 -0.12843722 0.004061655 0.013947461
0.0915485 0.15593855 0.082990125 -0.089498065 0.0990496 0.07208355 -0.13545929 -0.11351988
0.0025515808 0.04202364 -0.06499936 -0.026494099 -0.042010237 -0.012773255 -0.07599271 0.06948932
0.09297077 -0.13235335 -0.02994437 -0.029101128 -0.008609014 0.09151298 0.041473716 -0.036834445
0.07850054 -0.09054616 -0.048252102 0.00965559 -0.10769361 0.015389096 -0.09046125 0.014541035
-0.01785398 0.019575644 -0.119260006 -0.2787427 0.030616546 0.080104135 -0.1769866 0.02190321
-0.1334856 0.03144558 0.097274035 0.10728496 -0.10869006 0.04326013 0.07154651 -0.00021692141
0.100474745 -0.111649305 -0.07124585 -0.060685836 -0.010990004 0.0040707113 0.0112684835 -0.11679264
-0.06279354 0.04810483 -0.121850304 -0.021739228 -0.040476833 -0.07630994 0.02946499 -0.009949655
0.099286936 -0.013573938 -0.07935663 0.07851395 0.0008405426 -0.057513557 -0.11978151 0.023972547
-0.13488097 0.025136098 0.0305599 -0.143099 -0.101437174 -0.10167147 0.11886558 0.12022522
0.018407775 0.1327672 -0.065406136 -0.13729501 0.04939776 0.22596052 0.117139205 -0.018178686
0.08016544 0.06802931 0.08776671 -0.16135606 0.10087628 -0.12055505 0.08794508 -0.029097594
-0.11992318 0.039328255 -0.04943284 -0.15237546 -0.07310432 -0.023557235 0.088754565 -0.0633199
0.08399975 -0.0036305732 -0.0010757392 0.027060267 -0.049145006 -0.13886286 -0.044436235 -0.13178407
-0.06595193 0.0065062093 -0.09314142 -0.058661014 -0.0254115 -0.01629222 -0.078066655 0.006795438
-0.01984997 0.040445887 0.0063876417 -0.07062155 -0.048689105 -0.0016299873 -0.08824485 0.011071169
-0.009985162 0.054868456 0.03346959 0.10583742 -0.004662015 -0.10449698 0.06321662 -0.09557791
-0.0194387 -0.04579262 -0.053661555 -0.05232363 0.129955 0.08095763 0.03919315 0.13278852
-0.12815915 0.022820817 0.09053462 0.09394479 -0.11255072 0.050330386 -0.08056576 -0.0055258735
-0.029510433 -0.11808182 -0.13490388 -0.093040824 0.06417284 0.06469115 -0.12300317 -0.0531097
0.0069832746 -0.11872228 0.0796845 0.14557172 0.025012031 -0.12393987 0.0042369436 0.045332436
0.0888097 -0.11126717 -0.12670079 0.04957243 0.008804376 -0.07981323 -0.065963805 -0.08537808
0.11448017 -0.024400717 0.10199408 0.12623973 0.02971795 0.030125236 -0.045319747 0.097130366
-0.12743308 0.04907182 -0.023041615 0.05856982 -0.0006298931 -0.058098488 -0.051904567 0.038833775
-0.1363052 -0.08939233 -0.031076765 -0.051296998 0.04955038 0.09517231 -0.061596554 0.13372433
-0.05908867 -0.06045333 -0.100966245 -0.14191239 -0.09912702 -0.12600863 -0.13134424 0.03691078
0.076651774 0.0942657 0.15883921 -0.027973184 -0.027600676 -0.0950154 0.05466234 -0.12352674
00000000: 2599 2abd c3e8 3abe 415d 8abd 981c 8dbd
00000010: d7cf 2abd ddbf b73d 7d06 a6bd b0bc 6a3d
00000020: 8e50 95bc 7449 2abe bf07 e7bb 73ce ff3d
00000030: a372 bdbd 85df 0cbe 4373 eb3d 5677 653d
00000040: 9a24 aabd b348 ae3d 5d36 94bc 20c7 0ebe
00000050: a5d4 b73d f327 3b3d f98a b2bd 0184 493d
00000060: e7a9 f7bd 34bf d53d de6b b93d 4075 ed3c
00000070: 9a49 ccbb cc78 203b 98c1 1fbe c119 64bd
00000080: f122 76bd f52c a1bd 8cb8 00be 39a9 663d
00000090: 68ec 943d 0c85 03be a217 853b e483 643c
000000a0: c87d bb3d 5bae 1f3e baf6 a93d c34a b7bd
000000b0: 84da ca3d 8aa0 933d d7b5 0abe 1c7d e8bd
000000c0: 6c38 273b fb20 2c3d 621e 85bd 270a d9bc
000000d0: ed12 2cbd ea46 51bc 11a2 9bbd 6b50 8e3d
000000e0: 7667 be3d a387 07be e54d f5bc 7d65 eebc
000000f0: d20c 0dbc 286b bb3d 58e0 293d b7df 16bd
00000100: e4c4 a03d 4470 b9bd ffa3 45bd 7b32 1e3c
00000110: 788e dcbd 8c22 7c3c bf43 b9bd 853d 6e3c
00000120: 8342 92bc 1a5d a03c 973e f4bd 5db7 8ebe
00000130: 8dcf fa3c a30d a43d fa3b 35be 5c6e b33c
00000140: 73b0 08be 15cd 003d 9c37 c73d 38b8 db3d
00000150: e598 debd 8931 313d fa86 923d 6675 63b9
00000160: b4c5 cd3d 64a8 e4bd 58e9 91bd b691 78bd
00000170: 6b0f 34bc 9a63 853b 729f 383c fb30 efbd
00000180: e699 80bd 9209 453d a78c f9bd 7716 b2bc
00000190: 09cb 25bd 6348 9cbd 9060 f13c e103 23bc
000001a0: f356 cb3d 3965 5ebc bb85 a2bd eccb a03d
000001b0: dc57 5c3a 5693 6bbd 0250 f5bd 1362 c43c
000001c0: 3d1e 0abe 38ea cd3c c158 fa3c 8b88 12be
000001d0: 4bbe cfbd 2239 d0bd cc6f f33d a438 f63d
000001e0: e7cb 963c 20f4 073e a7f3 85bd 1097 0cbe
000001f0: 4e55 4a3d 3262 673e aee6 ef3d 78eb 94bc
00000200: c72d a43d f352 8b3d 08bf b33d 863a 25be
00000210: 3998 ce3d 91e5 f6bd 8d1c b43d 145e eebc
00000220: 499a f5bd aa16 213d 177a 4abd 5008 1cbe
00000230: b8b7 95bd 1afb c0bc f4c4 b53d ddad 81bd
00000240: 1008 ac3d e9ee 6dbb d1ff 8cba 7ead dd3c
00000250: 464c 49bd 1132 0ebe c502 36bd 67f2 06be
00000260: ce11 87bd 0a32 d53b eec0 bebd 8846 70bd
00000270: c72b d0bc 4377 85bc 69e1 9fbd 44ac de3b
00000280: 679c a2bc 96aa 253d 6c4f d13b 08a2 90bd
00000290: 3a6e 47bd 4ca5 d5ba b7b9 b4bd d963 353c
000002a0: ce98 23bc bfbd 603d 6917 093d 4ac1 d83d
000002b0: d1c3 98bb 8302 d6bd b777 813d 5abe c3bd
000002c0: e93d 9fbc 0b91 3bbd 38cc 5bbd 4d51 56bd
000002d0: ec12 053e 1dcd a53d ff88 203d b7f9 073e
000002e0: 273c 03be b9f2 ba3c 376a b93d 2066 c03d
000002f0: fe80 e6bd 3c27 4e3d a9ff a4bd 6312 b5bb
00000300: ddbf f1bc e2d4 f1bd 3e24 0abe 308c bebd
00000310: 0d6d 833d cb7c 843d 16e9 fbbd 8f89 59bd
00000320: f4d3 e43b ab24 f3bd a131 a33d c110 153e
00000330: 08e6 cc3c 30d4 fdbd 0fd6 8a3b 81ae 393d
00000340: dce1 b53d 0be0 e3bd dabd 01be 760c 4b3d
00000350: 3b40 103c 1e75 a3bd 0818 87bd b4da aebd
00000360: 9474 ea3d 03e4 c7bc 46e2 d03d fd44 013e
00000370: 0f73 f33c 33c9 f63c 33a1 39bd 49ec c63d
00000380: d17d 02be 88ff 483d c5c1 bcbc e8e6 6f3d
00000390: 691f 25ba aef8 6dbd e299 54bd 2a10 1f3d
000003a0: 9793 0bbe 5313 b7bd b394 febc cd1c 52bd
000003b0: 57f5 4a3d b3e9 c23d ab4c 7cbd 08ef 083e
000003c0: f606 72bd e99d 77bd 64c7 cebd 7b51 11be
000003d0: 1b03 cbbd 6808 01be 1b7f 06be c22f 173d
000003e0: 9bfb 9c3d 600e c13d bfa6 223e 0528 e5bc
000003f0: d01a e2bc 6f97 c2bd 9ee5 5f3d 96fb fcbd

network.2.bias f4 [50]
0.046807937 -0.1777458 -0.003388827 -0.051904958 -0.121120885 0.03611934 -0.10235981 0.10102278
0.21086054 0.1634093 -0.12503323 -0.078523494 0.529911 0.037014086 0.091350734 -0.008507293
0.01814801 -0.10583768 -0.08600221 -0.1633275 -0.096530564 0.1631526 -0.07729786 0.064885065
0.13173681 0.0913467 0.007793801 0.061747886 0.11408377 0.0063782874 0.095082104 0.002399203
0.03466361 -0.043288052 0.25872722 0.35833883 0.042744085 0.0004108803 -0.27921578 -0.1517454
0.025886133 0.01640965 -0.03374112 -0.018545795 0.11927904 -0.34847903 0.11276933 -0.12623063
0.043285683 -0.022631772
00000000: aeb9 3f3d ff02 36be 1517 5ebb 4b9a 54bd
00000010: 3a0e f8bd e0f1 133d 05a2 d1bd 08e5 ce3d
00000020: d3eb 573e c454 273e b608 00be edd0 a0bd
00000030: 3fa8 073f 159c 173d 1816 bb3d 2c62 0bbc
00000040: 23ab 943c 6dc1 d8bd ed21 b0bd 533f 27be
00000050: d1b1 c5bd 7a11 273e 574e 9ebd 76e2 843d
00000060: 04e6 063e fb13 bb3d 2463 ff3b 5aeb 7c3d
00000070: c0a4 e93d f400 d13b 68ba c23d f23b 1d3b
00000080: 6efb 0d3d d04e 31bd e577 843e 3078 b73e
00000090: 6c14 2f3d 6c6b d739 5ff5 8ebe 2563 1bbe
000000a0: 280f d43c 886d 863c 2134 0abd 5aed 97bc
000000b0: 9248 f43d d86b b2be 9bf3 e63d 9a42 01be
000000c0: 544c 313d 4466 b9bc

network.4.weight f4 [50, 50]
0.08699945 -0.12574941 -0.05424595 -0.11307102 0.060913205 -0.15808254 -0.13019066 -0.15495634
0.10631202 0.051884685 0.034716748 0.08742912 -0.084045894 -0.078868896 -0.0868801 0.046663154
-0.004602572 -0.0045919972 -0.13789615 0.0041597593 -0.075043954 -0.029763084 -0.021893317 0.0065834345
-0.13824025 0.10921936 -0.06491739 0.049564198 0.09738896 0.04138398 0.081796296 0.071162015
0.10355459 0.1323188 0.07899229 -0.071225606 -0.097383305 0.05708993 -0.019464897 -0.025070673
-0.11929017 0.04621139 0.04196779 -0.01632774 0.00819396 -0.0022306596 -0.16412605 -0.05092173
-0.023692144 -0.09307215 0.0773882 0.12187651 -0.0014450056 0.08801837 -0.12884693 0.0046900734
-0.0182903 -0.09342818 -0.103177324 0.05920521 0.004416339 0.065798186 0.09382747 0.15552974
-0.0115543185 0.0050385883 -0.01159659 0.028844742 -0.11499431 0.0019311678 -0.11959049 -0.10003693
-0.10327322 0.1059041 -0.099358484 -0.011215371 -0.005633737 0.2400497 0.064182654 -0.1099444
0.15947944 -0.15871117 0.046582423 0.044086285 0.05020486 -0.0627738 -0.10685693 0.05389013
0.1104285 -0.07469332 -0.043535408 -0.0860057 0.028447656 0.03010155 0.013324724 -0.085717954
-0.13105164 -0.045805715 -0.19266684 -0.014465006 0.08608924 -0.124957345 0.14094196 -0.13836387
-0.098701954 -0.10865019 -0.07991514 0.04487181 0.04589781 0.05405928 0.09868545 0.020103268
0.14620823 -0.056957994 0.0960255 -0.08099632 0.14002585 -0.13854791 -0.13258249 0.02724012
-0.058247183 -0.028360127 0.09440469 0.06141231 0.12033536 -0.05086224 -0.08774589 0.034560837
-0.028482234 -0.06648407 -0.016559353 0.07284481 0.022787683 0.1396161 0.06689697 0.087039545
0.029671932 -0.04325837 0.017806826 -0.08864759 -0.08680686 0.10043664 0.14496836 -0.10220569
0.10804887 -0.029785318 -0.047017474 0.11304579 -0.009185443 -0.08060101 0.029411616 -0.08447398
-0.038592897 -0.057028905 0.13319428 0.016342394 -0.054689374 -0.29812592 0.2867692 -0.11476493
0.045803428 -0.023585709 0.30650705 -0.02653559 -0.08576666 0.130799 -0.031761475 -0.009916959
-0.3262046 0.014527851 0.03789742 0.281474 -0.04173027 -0.027771773 -0.003447531 0.07945935
0.117235 -0.03747264 0.071872585 0.2106633 0.24101353 -0.0034862505 0.055440735 0.1131195
-0.0908354 0.27342436 -0.0011006278 -0.025497044 -0.023822356 -0.12530152 -0.09036246 0.06651617
0.11338802 -0.01949538 0.03304749 -0.045309417 0.06710319 -0.007963267 0.08538639 -0.05970909
0.12809005 -0.020801825 -0.08345846 0.016053667 -0.16020271 0.025272192 0.11228357 0.0021108761
0.053090982 -0.14491719 0.0021856024 0.08493324 -0.11838361 -0.059352163 0.13743976 0.046700448
0.09194693 -0.14202845 0.11267827 -0.015067617 0.029721942 0.07057418 -0.09850113 0.04149722
-0.15162902 0.10485437 0.022856295 0.20214115 -0.056655027 0.06517101 -0.10687055 0.03748452
0.1453478 -0.09704455 -0.18552259 -0.12855402 0.022432141 0.03540918 0.173542 -0.003571773
0.036479935 0.10671152 -0.021392329 0.09240935 -0.044201013 0.03243368 -0.030485274 0.15248173
-0.14216958 0.031125728 0.008956958 0.050159615 -0.12522158 0.024654828 -0.05591513 0.034719497
00000000: c52c b23d 74c4 00be 0031 5ebd c791 e7bd
00000010: 2080 793d 64e0 21be b350 05be e0ac 1ebe
00000020: 1eba d93d 0985 543d 2633 0e3d 0a0e b33d
00000030: 4120 acbd 0486 a1bd 32ee b1bd dd21 3f3d
00000040: 2cd1 96bb 7778 96bb a634 0dbe 974e 883b
00000050: a5b0 99bd b6d1 f3bc 9d59 b3bc dab9 d73b
00000060: da8e 0dbe 66ae df3d 69f3 84bd d403 4b3d
00000070: dd73 c73d 4082 293d d184 a73d 64bd 913d
00000080: 6e14 d43d 947e 073e b6c6 a13d bbde 91bd
00000090: e670 c7bd 21d7 693d d974 9fbc 0361 cdbc
000000a0: 684e f4bd 2848 3d3d 6be6 2b3d c1c1 85bc
000000b0: f63f 063c 4230 12bb a910 28be 4e93 50bd
000000c0: 0716 c2bc 9d9c bebd b47d 9e3d 649a f93d
000000d0: 5866 bdba fa42 b43d 73f0 03be 30af 993b
000000e0: 8ad5 95bc 4657 bfbd a24e d3bd 2a81 723d
000000f0: f0b6 903b 33c1 863d 9e28 c03d 3043 1f3e
00000100: 534e 3dbc be1a a53b a0ff 3dbc cf4b ec3c
00000110: 2382 ebbd 3d1f fd3a dceb f4bd 29e0 ccbd
00000120: e980 d3bd 40e4 d83d 767c cbbd adc0 37bc
00000130: 369b b8bb 97cf 753e 3272 833d 882a e1bd
00000140: 944e 233e 2e85 22be 36cd 3e3d d293 343d
00000150: 9ca3 4d3d 8d8f 80bd ced7 dabd e6bb 5c3d
00000160: 5628 e23d d0f8 98bd 2f52 32bd c223 b0bd
00000170: 0f0b e93c 8797 f63c f14f 5a3c e58c afbd
00000180: 6732 06be c69e 3bbd 754a 45be a2fe 6cbc
00000190: 8e4f b03d a3e9 ffbd 1753 103e 42af 0dbe
000001a0: 4024 cabd fe83 debd 8daa a3bd 81cb 373d
000001b0: 58ff 3b3d 436d 5d3d 991b ca3d 9caf a43c
000001c0: 9cb7 153e c94c 69bd 04a9 c43d 66e1 a5bd
000001d0: f062 0f3e 81df 0dbe b4c3 07be ac26 df3c
000001e0: 9994 6ebd 7f53 e8bc 3f57 c13d 798b 7b3d
000001f0: 6372 f63d ed54 50bd 1eb4 b3bd aa8f 0d3d
00000200: 9353 e9bc cd28 88bd 7ba7 87bc a92f 953d
00000210: 3cad ba3c 86f7 0e3e 4701 893d ca41 b23d
00000220: 8d12 f33c b02f 31bd 9fdf 913c de8c b5bd
00000230: ccc7 b1bd bab1 cd3d 9672 143e 3851 d1bd
00000240: ba48 dd3d 5700 f4bc 6595 40bd 8d84 e73d
00000250: 8a7e 16bc 2412 a5bd a1f0 f03c b200 adbd
00000260: 9613 1ebd 2497 69bd 1564 083e 7ce0 853c
00000270: f701 60bd f6a3 98be 6ad3 923e e009 ebbd
00000280: 609c 3b3d d136 c1bc 7eee 9c3e 2a61 d9bc
00000290: 6ea6 afbd 2cf0 053e 5218 02bd be7a 22bc
000002a0: 4a04 a7be 3906 6e3c 533a 1b3d 5c1d 903e
000002b0: 5ced 2abd a181 e3bc f9ef 61bb 95bb a23d
000002c0: e718 f03d e97c 19bd ef31 933d 1fb8 573e
000002d0: 40cc 763e 9479 64bb d315 633d 32ab e73d
000002e0: e907 babd 47fe 8b3e f142 90ba 2ddf d0bc
000002f0: 1a27 c3bc 0b4f 00be f40f b9bd a139 883d
00000300: fa37 e83d c6b4 9fbc ce5c 073d 5e96 39bd
00000310: 666d 893d 5d78 02bc 0fdf ae3d 8591 74bd
00000320: 0a2a 033e 9768 aabc 45ec aabd fb82 833c
00000330: 2e0c 24be a107 cf3c eef4 e53d a056 0a3b
00000340: ee75 593d 2c65 14be 533c 0f3b 7bf1 ad3d
00000350: 1b73 f2bd 411b 73bd 02bd 0c3e f848 3f3d
00000360: ac4e bc3d e86f 11be ddc3 e63d 2bde 76bc
00000370: 6e7b f33c 3289 903d f6ba c9bd fdf8 293d
00000380: a344 1bbe e3bd d63d 203d bb3c 17fe 4e3e
00000390: 1a0f 68bd 6178 853d f2de dabd 5e89 193d
000003a0: 0ed6 143e 4bbf c6bd a2f9 3dbe aaa3 03be
000003b0: 9cc3 b73c 3709 113d feb4 313e 6814 6abb
000003c0: fc6b 153d 928b da3d f73e afbc 1d41 bd3d
000003d0: 1f0c 35bd 2ed9 043d 41bc f9bc 2c24 1c3e
000003e0: e794 11be 62fb fe3c 34c0 123c 2b74 4d3d
000003f0: 163a 00be ecf8 c93c 4307 65bd 0836 0e3d

network.4.bias f4 [50]
-0.089640684 0.07442914 0.1884282 -0.06809952 -0.17066962 -0.13537832 -0.037147634 -0.08315121
-0.16895552 0.11980819 -0.22258544 -0.009794494 -0.34058398 -0.093809806 0.070453785 0.01984994
-0.061565723 -0.20327356 0.39149922 -0.07148443 0.036723003 -0.104709506 -0.012808106 -0.28292227
-0.026891293 -0.2627481 -0.00703676 -0.13941528 -0.287188 -0.11208254 0.40718788 -0.013010749
-0.06165936 0.24726777 0.06519961 0.11214443 0.071487494 -0.06645612 0.23968789 -0.17441781
-0.28305477 0.06982295 0.447224 -0.099240385 0.45349228 0.08541555 -0.22550952 -0.15348412
-0.32940733 -0.08904596
00000000: 8995 b7bd 4e6e 983d 52f3 403e c377 8bbd
00000010: 04c4 2ebe 9da0 0abe 1e28 18bd 2e4b aabd
00000020: ad02 2dbe ff5d f53d 70ed 63be 1679 20bc
00000030: 0661 aebe 5b1f c0bd 134a 903d 579c a23c
00000040: 572c 7cbd f226 50be 9672 c83e 6e66 92bd
00000050: dc6a 163d f071 d6bd 17d9 51bc 30db 90be
00000060: 214b dcbc eb86 86be 9f94 e6bb e1c2 0ebe
00000070: 4e0a 93be 888b e5bd ee7a d03e 092b 55bc
00000080: 868e 7cbd c333 7d3e 6087 853d fbab e53d
00000090: 0968 923d 251a 88bd be70 753e 959a 32be
000000a0: 8eec 90be 56ff 8e3d 8bfa e43e 8b3e cbbd
000000b0: 2430 e83e 59ee ae3d f8eb 66be f12a 1dbe
000000c0: 14a8 a8be ba5d b6bd

network.6.weight f4 [2, 50]
0.0037882274 -0.09208369 0.013113887 -0.14702293 0.06210362 0.019728802 0.044644177 0.013122445
-0.051512755 -0.10386921 -0.037731282 -0.117947236 -0.101048104 -0.14071691 -0.12337598 -0.08097084
0.16685109 -0.032283712 0.039555937 0.01461717 -0.13532771 -0.060671248 -0.11275642 -0.12084121
0.0075490675 -0.023828866 -0.103547774 0.11872867 -0.02840771 0.1201855 0.0025694792 -0.0632061
0.04807055 -0.3882096 0.11614474 -0.0091404 0.057063118 0.10347697 0.08353286 -0.07625792
-0.007947642 -0.0057027955 0.045200154 -0.054544993 -0.034142535 0.036580484 -0.07661806 -0.112976395
-0.015865888 0.042722672 0.04955016 -0.055259798 -0.057782225 0.0029645816 0.034552824 -0.021362755
0.032647636 -0.02181451 -0.035822693 -0.0013740555 -0.025880693 -0.0064349356 0.06587395 -0.06552702
0.09216567 0.025460925 -0.046109844 -0.002016338 0.00044333053 0.106061585 -0.10358223 0.0047532255
0.060723417 -0.06926899 0.12223587 0.14622903 0.03604112 -0.14574572 -0.017950265 -0.041477293
-0.034004416 0.14556585 0.020565445 0.32806006 0.00565421 0.07377383 0.12492665 -0.10035298
-0.019200165 -0.0041245823 0.082980916 0.14177105 0.021495681 0.033959452 -0.04288013 -0.052770056
0.12029284 -0.07189005 0.007551139 0.06305666
00000000: e943 783b 6096 bcbd a1db 563c 2e8d 16be
00000010: 5e60 7e3d 4c9e a13c d0dc 363d 86ff 563c
00000020: 0aff 52bd 61b9 d4bd 1e8c 1abd 528e f1bd
00000030: 4ff2 cebd 1818 10be 8cac fcbd 0ad4 a5bd
00000040: 03db 2a3e ed3b 04bd 6805 223d db7c 6f3c
00000050: 5993 0abe 6a82 78bd d7ec e6bd 997b f7bd
00000060: 2b5e f73b c134 c3bc db10 d4bd 0428 f33d
00000070: 49b7 e8bc d123 f63d b564 283b 3372 81bd
00000080: a0e5 443d 69c3 c6be 4bdd ed3d 9ec1 15bc
00000090: 04bb 693d bceb d33d 4713 ab3d 1d2d 9cbd
000000a0: d436 02bc 84de babb cc23 393d 926a 5fbd
000000b0: 0bd9 0bbd 6bd5 153d eee9 9cbd 2b60 e7bd
000000c0: 2ef9 81bc f8fd 2e3d 1cf5 4a3d 1958 62bd
000000d0: 0ead 6cbd 6d49 423b 4387 0d3d f200 afbc
000000e0: 87b9 053d 58b4 b2bc d1ba 12bd a719 b4ba
000000f0: bf03 d4bc 27dc d2bb ece8 863d 0833 86bd
00000100: 5bc1 bc3d 6e93 d03c addd 3cbd 8a24 04bb
00000110: d16e e839 d136 d93d ec22 d4bd f2c0 9b3b
00000120: 1eb9 783d e6dc 8dbd cd56 fa3d 10bd 153e
00000130: da9f 133d 5e3e 15be 6f0c 93bc 18e4 29bd
00000140: 3748 0bbd 370f 153e dd78 a83c 7df7 a73e
00000150: f446 b93b bc16 973d 8bd9 ff3d dd85 cdbd
00000160: aa49 9dbc 8127 87bb e6f1 a93d 6e2c 113e
00000170: b617 b03c 1119 0b3d 13a3 2fbd 6a25 58bd
00000180: 185c f63d 173b 93bd 8c6f f73b da23 813d

network.6.bias f4 [2]
-0.14675367 0.0801734
00000000: 9846 16be f431 a43d
